_________________________________________________________________
Layer (type)                 Output Shape              Param #   
=================================================================
merge_1 (Merge)              (None, 65, 3)             0         
_________________________________________________________________
conv1d_1 (Conv1D)            (None, 65, 64)            640       
_________________________________________________________________
conv1d_2 (Conv1D)            (None, 65, 64)            12352     
_________________________________________________________________
conv1d_3 (Conv1D)            (None, 65, 64)            12352     
_________________________________________________________________
conv1d_4 (Conv1D)            (None, 65, 64)            12352     
_________________________________________________________________
conv1d_5 (Conv1D)            (None, 65, 64)            12352     
_________________________________________________________________
flatten_1 (Flatten)          (None, 4160)              0         
_________________________________________________________________
dense_1 (Dense)              (None, 32)                133152    
_________________________________________________________________
dense_2 (Dense)              (None, 2)                 66        
=================================================================
Total params: 1,364,291
Trainable params: 1,364,291
Non-trainable params: 0
_________________________________________________________________

Embedding output dimension:	3
Early stopping patience:	20
Optimizer:	adagrad
Loss:	categorical_crossentropy
Activation:	relu