_________________________________________________________________
Layer (type)                 Output Shape              Param #   
=================================================================
merge_1 (Merge)              (None, 65, 3)             0         
_________________________________________________________________
lstm_1 (LSTM)                (None, 65, 64)            17408     
_________________________________________________________________
dropout_1 (Dropout)          (None, 65, 64)            0         
_________________________________________________________________
lstm_2 (LSTM)                (None, 65, 64)            33024     
_________________________________________________________________
dropout_2 (Dropout)          (None, 65, 64)            0         
_________________________________________________________________
lstm_3 (LSTM)                (None, 65, 64)            33024     
_________________________________________________________________
dropout_3 (Dropout)          (None, 65, 64)            0         
_________________________________________________________________
lstm_4 (LSTM)                (None, 65, 32)            12416     
_________________________________________________________________
lstm_5 (LSTM)                (None, 1)                 136       
=================================================================
Total params: 1,277,003
Trainable params: 1,277,003
Non-trainable params: 0
_________________________________________________________________

Embedding output dimension:	3
Early stopping patience:	20
Optimizer:	adam
Loss:	binary_crossentropy
Activation:	tanh
Dropout:	0.25